2019-07-10 15:50:16,936:INFO: Namespace(model_dir='experiments/GAT', restore_file=None)
2019-07-10 15:50:47,749:INFO: Namespace(model_dir='experiments/GAT', restore_file=None)
2019-07-10 15:50:47,828:INFO: ----Data statistics------'
      #Edges 14
      #Classes 2
      #Train samples 3
      #Val samples 1
      #Test samples 1
2019-07-10 15:50:47,829:INFO: GAT(
  (gat_layers): ModuleList(
    (0): GraphAttention(
      (fc): Linear(in_features=323, out_features=10, bias=False)
      (leaky_relu): LeakyReLU(negative_slope=0.2)
    )
    (1): GraphAttention(
      (fc): Linear(in_features=10, out_features=10, bias=False)
      (leaky_relu): LeakyReLU(negative_slope=0.2)
      (res_fc): Linear(in_features=10, out_features=10, bias=False)
    )
    (2): GraphAttention(
      (fc): Linear(in_features=10, out_features=4, bias=False)
      (leaky_relu): LeakyReLU(negative_slope=0.2)
      (res_fc): Linear(in_features=10, out_features=4, bias=False)
    )
  )
)
2019-07-10 15:52:30,400:INFO: Namespace(model_dir='experiments/GAT', restore_file=None)
2019-07-10 15:52:30,484:INFO: ----Data statistics------'
      #Edges 14
      #Classes 2
      #Train samples 3
      #Val samples 1
      #Test samples 1
2019-07-10 15:52:30,486:INFO: GAT(
  (gat_layers): ModuleList(
    (0): GraphAttention(
      (fc): Linear(in_features=323, out_features=10, bias=False)
      (leaky_relu): LeakyReLU(negative_slope=0.2)
    )
    (1): GraphAttention(
      (fc): Linear(in_features=10, out_features=10, bias=False)
      (leaky_relu): LeakyReLU(negative_slope=0.2)
      (res_fc): Linear(in_features=10, out_features=10, bias=False)
    )
    (2): GraphAttention(
      (fc): Linear(in_features=10, out_features=4, bias=False)
      (leaky_relu): LeakyReLU(negative_slope=0.2)
      (res_fc): Linear(in_features=10, out_features=4, bias=False)
    )
  )
)
2019-07-10 15:56:29,146:INFO: Namespace(model_dir='experiments/GAT', restore_file=None)
2019-07-10 15:56:29,231:INFO: ----Data statistics------'
      #Edges 14
      #Classes 2
      #Train samples 3
      #Val samples 1
      #Test samples 1
2019-07-10 15:56:29,232:INFO: GAT(
  (gat_layers): ModuleList(
    (0): GraphAttention(
      (fc): Linear(in_features=323, out_features=10, bias=False)
      (leaky_relu): LeakyReLU(negative_slope=0.2)
    )
    (1): GraphAttention(
      (fc): Linear(in_features=10, out_features=10, bias=False)
      (leaky_relu): LeakyReLU(negative_slope=0.2)
      (res_fc): Linear(in_features=10, out_features=10, bias=False)
    )
    (2): GraphAttention(
      (fc): Linear(in_features=10, out_features=4, bias=False)
      (leaky_relu): LeakyReLU(negative_slope=0.2)
      (res_fc): Linear(in_features=10, out_features=4, bias=False)
    )
  )
)
2019-07-10 15:57:54,626:INFO: Namespace(model_dir='experiments/GAT', restore_file=None)
2019-07-10 15:57:54,708:INFO: ----Data statistics------'
      #Edges 14
      #Classes 2
      #Train samples 3
      #Val samples 1
      #Test samples 1
2019-07-10 15:57:54,709:INFO: GAT(
  (gat_layers): ModuleList(
    (0): GraphAttention(
      (fc): Linear(in_features=323, out_features=10, bias=False)
      (leaky_relu): LeakyReLU(negative_slope=0.2)
    )
    (1): GraphAttention(
      (fc): Linear(in_features=10, out_features=10, bias=False)
      (leaky_relu): LeakyReLU(negative_slope=0.2)
      (res_fc): Linear(in_features=10, out_features=10, bias=False)
    )
    (2): GraphAttention(
      (fc): Linear(in_features=10, out_features=4, bias=False)
      (leaky_relu): LeakyReLU(negative_slope=0.2)
      (res_fc): Linear(in_features=10, out_features=4, bias=False)
    )
  )
)
2019-07-10 16:00:02,887:INFO: Namespace(model_dir='experiments/GAT', restore_file=None)
2019-07-10 16:00:02,976:INFO: ----Data statistics------'
      #Edges 14
      #Classes 2
      #Train samples 3
      #Val samples 1
      #Test samples 1
2019-07-10 16:00:02,977:INFO: GAT(
  (gat_layers): ModuleList(
    (0): GraphAttention(
      (fc): Linear(in_features=323, out_features=10, bias=False)
      (leaky_relu): LeakyReLU(negative_slope=0.2)
    )
    (1): GraphAttention(
      (fc): Linear(in_features=10, out_features=10, bias=False)
      (leaky_relu): LeakyReLU(negative_slope=0.2)
      (res_fc): Linear(in_features=10, out_features=10, bias=False)
    )
    (2): GraphAttention(
      (fc): Linear(in_features=10, out_features=4, bias=False)
      (leaky_relu): LeakyReLU(negative_slope=0.2)
      (res_fc): Linear(in_features=10, out_features=4, bias=False)
    )
  )
)
2019-07-10 16:10:06,260:INFO: Namespace(model_dir='experiments/GAT', restore_file=None)
2019-07-10 16:10:06,352:INFO: ----Data statistics------'
      #Edges 14
      #Classes 2
      #Train samples 3
      #Val samples 1
      #Test samples 1
2019-07-10 16:10:06,353:INFO: GAT(
  (gat_layers): ModuleList(
    (0): GraphAttention(
      (fc): Linear(in_features=323, out_features=10, bias=False)
      (leaky_relu): LeakyReLU(negative_slope=0.2)
    )
    (1): GraphAttention(
      (fc): Linear(in_features=10, out_features=10, bias=False)
      (leaky_relu): LeakyReLU(negative_slope=0.2)
      (res_fc): Linear(in_features=10, out_features=10, bias=False)
    )
    (2): GraphAttention(
      (fc): Linear(in_features=10, out_features=4, bias=False)
      (leaky_relu): LeakyReLU(negative_slope=0.2)
      (res_fc): Linear(in_features=10, out_features=4, bias=False)
    )
  )
)
2019-07-10 16:10:37,827:INFO: Namespace(model_dir='experiments/GAT', restore_file=None)
2019-07-10 16:10:37,912:INFO: ----Data statistics------'
      #Edges 14
      #Classes 2
      #Train samples 3
      #Val samples 1
      #Test samples 1
2019-07-10 16:10:37,914:INFO: GAT(
  (gat_layers): ModuleList(
    (0): GraphAttention(
      (fc): Linear(in_features=323, out_features=10, bias=False)
      (leaky_relu): LeakyReLU(negative_slope=0.2)
    )
    (1): GraphAttention(
      (fc): Linear(in_features=10, out_features=10, bias=False)
      (leaky_relu): LeakyReLU(negative_slope=0.2)
      (res_fc): Linear(in_features=10, out_features=10, bias=False)
    )
    (2): GraphAttention(
      (fc): Linear(in_features=10, out_features=4, bias=False)
      (leaky_relu): LeakyReLU(negative_slope=0.2)
      (res_fc): Linear(in_features=10, out_features=4, bias=False)
    )
  )
)
2019-07-10 16:11:28,620:INFO: Namespace(model_dir='experiments/GAT', restore_file=None)
2019-07-10 16:11:28,694:INFO: ----Data statistics------'
      #Edges 14
      #Classes 2
      #Train samples 3
      #Val samples 1
      #Test samples 1
2019-07-10 16:11:28,695:INFO: GAT(
  (gat_layers): ModuleList(
    (0): GraphAttention(
      (fc): Linear(in_features=323, out_features=10, bias=False)
      (leaky_relu): LeakyReLU(negative_slope=0.2)
    )
    (1): GraphAttention(
      (fc): Linear(in_features=10, out_features=10, bias=False)
      (leaky_relu): LeakyReLU(negative_slope=0.2)
      (res_fc): Linear(in_features=10, out_features=10, bias=False)
    )
    (2): GraphAttention(
      (fc): Linear(in_features=10, out_features=4, bias=False)
      (leaky_relu): LeakyReLU(negative_slope=0.2)
      (res_fc): Linear(in_features=10, out_features=4, bias=False)
    )
  )
)
2019-07-10 16:11:58,646:INFO: Namespace(model_dir='experiments/GAT', restore_file=None)
2019-07-10 16:11:58,724:INFO: ----Data statistics------'
      #Edges 14
      #Classes 2
      #Train samples 3
      #Val samples 1
      #Test samples 1
2019-07-10 16:11:58,725:INFO: GAT(
  (gat_layers): ModuleList(
    (0): GraphAttention(
      (fc): Linear(in_features=323, out_features=10, bias=False)
      (leaky_relu): LeakyReLU(negative_slope=0.2)
    )
    (1): GraphAttention(
      (fc): Linear(in_features=10, out_features=10, bias=False)
      (leaky_relu): LeakyReLU(negative_slope=0.2)
      (res_fc): Linear(in_features=10, out_features=10, bias=False)
    )
    (2): GraphAttention(
      (fc): Linear(in_features=10, out_features=4, bias=False)
      (leaky_relu): LeakyReLU(negative_slope=0.2)
      (res_fc): Linear(in_features=10, out_features=4, bias=False)
    )
  )
)
2019-07-10 16:12:44,307:INFO: Namespace(model_dir='experiments/GAT', restore_file=None)
2019-07-10 16:12:44,381:INFO: ----Data statistics------'
      #Edges 14
      #Classes 2
      #Train samples 3
      #Val samples 1
      #Test samples 1
2019-07-10 16:12:44,382:INFO: GAT(
  (gat_layers): ModuleList(
    (0): GraphAttention(
      (fc): Linear(in_features=323, out_features=10, bias=False)
      (leaky_relu): LeakyReLU(negative_slope=0.2)
    )
    (1): GraphAttention(
      (fc): Linear(in_features=10, out_features=10, bias=False)
      (leaky_relu): LeakyReLU(negative_slope=0.2)
      (res_fc): Linear(in_features=10, out_features=10, bias=False)
    )
    (2): GraphAttention(
      (fc): Linear(in_features=10, out_features=4, bias=False)
      (leaky_relu): LeakyReLU(negative_slope=0.2)
      (res_fc): Linear(in_features=10, out_features=4, bias=False)
    )
  )
)
2019-07-10 16:12:58,237:INFO: Namespace(model_dir='experiments/GAT', restore_file=None)
2019-07-10 16:12:58,317:INFO: ----Data statistics------'
      #Edges 14
      #Classes 2
      #Train samples 3
      #Val samples 1
      #Test samples 1
2019-07-10 16:12:58,318:INFO: GAT(
  (gat_layers): ModuleList(
    (0): GraphAttention(
      (fc): Linear(in_features=323, out_features=10, bias=False)
      (leaky_relu): LeakyReLU(negative_slope=0.2)
    )
    (1): GraphAttention(
      (fc): Linear(in_features=10, out_features=10, bias=False)
      (leaky_relu): LeakyReLU(negative_slope=0.2)
      (res_fc): Linear(in_features=10, out_features=10, bias=False)
    )
    (2): GraphAttention(
      (fc): Linear(in_features=10, out_features=4, bias=False)
      (leaky_relu): LeakyReLU(negative_slope=0.2)
      (res_fc): Linear(in_features=10, out_features=4, bias=False)
    )
  )
)
2019-07-10 16:13:37,152:INFO: Namespace(model_dir='experiments/GAT', restore_file=None)
2019-07-10 16:13:37,243:INFO: ----Data statistics------'
      #Edges 14
      #Classes 2
      #Train samples 3
      #Val samples 1
      #Test samples 1
2019-07-10 16:13:37,245:INFO: GAT(
  (gat_layers): ModuleList(
    (0): GraphAttention(
      (fc): Linear(in_features=323, out_features=10, bias=False)
      (leaky_relu): LeakyReLU(negative_slope=0.2)
    )
    (1): GraphAttention(
      (fc): Linear(in_features=10, out_features=10, bias=False)
      (leaky_relu): LeakyReLU(negative_slope=0.2)
      (res_fc): Linear(in_features=10, out_features=10, bias=False)
    )
    (2): GraphAttention(
      (fc): Linear(in_features=10, out_features=4, bias=False)
      (leaky_relu): LeakyReLU(negative_slope=0.2)
      (res_fc): Linear(in_features=10, out_features=4, bias=False)
    )
  )
)
2019-07-10 16:14:04,905:INFO: Namespace(model_dir='experiments/GAT', restore_file=None)
2019-07-10 16:14:04,981:INFO: ----Data statistics------'
      #Edges 14
      #Classes 2
      #Train samples 3
      #Val samples 1
      #Test samples 1
2019-07-10 16:14:04,982:INFO: GAT(
  (gat_layers): ModuleList(
    (0): GraphAttention(
      (fc): Linear(in_features=323, out_features=10, bias=False)
      (leaky_relu): LeakyReLU(negative_slope=0.2)
    )
    (1): GraphAttention(
      (fc): Linear(in_features=10, out_features=10, bias=False)
      (leaky_relu): LeakyReLU(negative_slope=0.2)
      (res_fc): Linear(in_features=10, out_features=10, bias=False)
    )
    (2): GraphAttention(
      (fc): Linear(in_features=10, out_features=4, bias=False)
      (leaky_relu): LeakyReLU(negative_slope=0.2)
      (res_fc): Linear(in_features=10, out_features=4, bias=False)
    )
  )
)
2019-07-10 16:26:27,646:INFO: Namespace(model_dir='experiments/GAT', restore_file=None)
2019-07-10 16:26:27,734:INFO: ----Data statistics------'
      #Edges 14
      #Classes 2
      #Train samples 3
      #Val samples 1
      #Test samples 1
2019-07-10 16:26:27,735:INFO: GAT(
  (gat_layers): ModuleList(
    (0): GraphAttention(
      (fc): Linear(in_features=323, out_features=10, bias=False)
      (leaky_relu): LeakyReLU(negative_slope=0.2)
    )
    (1): GraphAttention(
      (fc): Linear(in_features=10, out_features=10, bias=False)
      (leaky_relu): LeakyReLU(negative_slope=0.2)
      (res_fc): Linear(in_features=10, out_features=10, bias=False)
    )
    (2): GraphAttention(
      (fc): Linear(in_features=10, out_features=4, bias=False)
      (leaky_relu): LeakyReLU(negative_slope=0.2)
      (res_fc): Linear(in_features=10, out_features=4, bias=False)
    )
  )
)
2019-07-10 16:32:27,031:INFO: Namespace(model_dir='experiments/GAT', restore_file=None)
2019-07-10 16:32:27,114:INFO: ----Data statistics------'
      #Edges 14
      #Classes 2
      #Train samples 3
      #Val samples 1
      #Test samples 1
2019-07-10 16:32:27,116:INFO: GAT(
  (gat_layers): ModuleList(
    (0): GraphAttention(
      (fc): Linear(in_features=323, out_features=10, bias=False)
      (leaky_relu): LeakyReLU(negative_slope=0.2)
    )
    (1): GraphAttention(
      (fc): Linear(in_features=10, out_features=10, bias=False)
      (leaky_relu): LeakyReLU(negative_slope=0.2)
      (res_fc): Linear(in_features=10, out_features=10, bias=False)
    )
    (2): GraphAttention(
      (fc): Linear(in_features=10, out_features=4, bias=False)
      (leaky_relu): LeakyReLU(negative_slope=0.2)
      (res_fc): Linear(in_features=10, out_features=4, bias=False)
    )
  )
)
2019-07-10 16:32:56,788:INFO: Namespace(model_dir='experiments/GAT', restore_file=None)
2019-07-10 16:32:56,873:INFO: ----Data statistics------'
      #Edges 14
      #Classes 2
      #Train samples 3
      #Val samples 1
      #Test samples 1
2019-07-10 16:32:56,875:INFO: GAT(
  (gat_layers): ModuleList(
    (0): GraphAttention(
      (fc): Linear(in_features=323, out_features=10, bias=False)
      (leaky_relu): LeakyReLU(negative_slope=0.2)
    )
    (1): GraphAttention(
      (fc): Linear(in_features=10, out_features=10, bias=False)
      (leaky_relu): LeakyReLU(negative_slope=0.2)
      (res_fc): Linear(in_features=10, out_features=10, bias=False)
    )
    (2): GraphAttention(
      (fc): Linear(in_features=10, out_features=4, bias=False)
      (leaky_relu): LeakyReLU(negative_slope=0.2)
      (res_fc): Linear(in_features=10, out_features=4, bias=False)
    )
  )
)
2019-07-10 16:50:21,970:INFO: Namespace(model_dir='experiments/GAT', restore_file=None)
2019-07-10 16:50:22,053:INFO: ----Data statistics------'
      #Edges 14
      #Classes 2
      #Train samples 3
      #Val samples 1
      #Test samples 1
2019-07-10 16:50:22,055:INFO: GAT(
  (gat_layers): ModuleList(
    (0): GraphAttention(
      (fc): Linear(in_features=323, out_features=10, bias=False)
      (leaky_relu): LeakyReLU(negative_slope=0.2)
    )
    (1): GraphAttention(
      (fc): Linear(in_features=10, out_features=10, bias=False)
      (leaky_relu): LeakyReLU(negative_slope=0.2)
      (res_fc): Linear(in_features=10, out_features=10, bias=False)
    )
    (2): GraphAttention(
      (fc): Linear(in_features=10, out_features=4, bias=False)
      (leaky_relu): LeakyReLU(negative_slope=0.2)
      (res_fc): Linear(in_features=10, out_features=4, bias=False)
    )
  )
)
2019-07-10 16:52:39,544:INFO: Namespace(model_dir='experiments/GAT', restore_file=None)
2019-07-10 16:52:39,637:INFO: ----Data statistics------'
      #Edges 14
      #Classes 2
      #Train samples 3
      #Val samples 1
      #Test samples 1
2019-07-10 16:52:39,638:INFO: GAT(
  (gat_layers): ModuleList(
    (0): GraphAttention(
      (fc): Linear(in_features=323, out_features=10, bias=False)
      (leaky_relu): LeakyReLU(negative_slope=0.2)
    )
    (1): GraphAttention(
      (fc): Linear(in_features=10, out_features=10, bias=False)
      (leaky_relu): LeakyReLU(negative_slope=0.2)
      (res_fc): Linear(in_features=10, out_features=10, bias=False)
    )
    (2): GraphAttention(
      (fc): Linear(in_features=10, out_features=4, bias=False)
      (leaky_relu): LeakyReLU(negative_slope=0.2)
      (res_fc): Linear(in_features=10, out_features=4, bias=False)
    )
  )
)
2019-07-10 16:54:57,064:INFO: Namespace(model_dir='experiments/GAT', restore_file=None)
2019-07-10 16:54:57,141:INFO: ----Data statistics------'
      #Edges 14
      #Classes 2
      #Train samples 3
      #Val samples 1
      #Test samples 1
2019-07-10 16:54:57,142:INFO: GAT(
  (gat_layers): ModuleList(
    (0): GraphAttention(
      (fc): Linear(in_features=323, out_features=10, bias=False)
      (leaky_relu): LeakyReLU(negative_slope=0.2)
    )
    (1): GraphAttention(
      (fc): Linear(in_features=10, out_features=10, bias=False)
      (leaky_relu): LeakyReLU(negative_slope=0.2)
      (res_fc): Linear(in_features=10, out_features=10, bias=False)
    )
    (2): GraphAttention(
      (fc): Linear(in_features=10, out_features=4, bias=False)
      (leaky_relu): LeakyReLU(negative_slope=0.2)
      (res_fc): Linear(in_features=10, out_features=4, bias=False)
    )
  )
)
2019-07-10 16:55:24,080:INFO: Namespace(model_dir='experiments/GAT', restore_file=None)
2019-07-10 16:55:24,155:INFO: ----Data statistics------'
      #Edges 14
      #Classes 2
      #Train samples 3
      #Val samples 1
      #Test samples 1
2019-07-10 16:55:24,157:INFO: GAT(
  (gat_layers): ModuleList(
    (0): GraphAttention(
      (fc): Linear(in_features=323, out_features=10, bias=False)
      (leaky_relu): LeakyReLU(negative_slope=0.2)
    )
    (1): GraphAttention(
      (fc): Linear(in_features=10, out_features=10, bias=False)
      (leaky_relu): LeakyReLU(negative_slope=0.2)
      (res_fc): Linear(in_features=10, out_features=10, bias=False)
    )
    (2): GraphAttention(
      (fc): Linear(in_features=10, out_features=4, bias=False)
      (leaky_relu): LeakyReLU(negative_slope=0.2)
      (res_fc): Linear(in_features=10, out_features=4, bias=False)
    )
  )
)
2019-07-10 16:58:45,471:INFO: Namespace(model_dir='experiments/GAT', restore_file=None)
2019-07-10 16:58:45,565:INFO: ----Data statistics------'
      #Edges 14
      #Classes 2
      #Train samples 3
      #Val samples 1
      #Test samples 1
2019-07-10 16:58:45,567:INFO: GAT(
  (gat_layers): ModuleList(
    (0): GraphAttention(
      (fc): Linear(in_features=323, out_features=10, bias=False)
      (leaky_relu): LeakyReLU(negative_slope=0.2)
    )
    (1): GraphAttention(
      (fc): Linear(in_features=10, out_features=10, bias=False)
      (leaky_relu): LeakyReLU(negative_slope=0.2)
      (res_fc): Linear(in_features=10, out_features=10, bias=False)
    )
    (2): GraphAttention(
      (fc): Linear(in_features=10, out_features=4, bias=False)
      (leaky_relu): LeakyReLU(negative_slope=0.2)
      (res_fc): Linear(in_features=10, out_features=4, bias=False)
    )
  )
)
2019-07-10 16:59:02,308:INFO: Namespace(model_dir='experiments/GAT', restore_file=None)
2019-07-10 16:59:02,385:INFO: ----Data statistics------'
      #Edges 14
      #Classes 2
      #Train samples 3
      #Val samples 1
      #Test samples 1
2019-07-10 16:59:02,387:INFO: GAT(
  (gat_layers): ModuleList(
    (0): GraphAttention(
      (fc): Linear(in_features=323, out_features=10, bias=False)
      (leaky_relu): LeakyReLU(negative_slope=0.2)
    )
    (1): GraphAttention(
      (fc): Linear(in_features=10, out_features=10, bias=False)
      (leaky_relu): LeakyReLU(negative_slope=0.2)
      (res_fc): Linear(in_features=10, out_features=10, bias=False)
    )
    (2): GraphAttention(
      (fc): Linear(in_features=10, out_features=4, bias=False)
      (leaky_relu): LeakyReLU(negative_slope=0.2)
      (res_fc): Linear(in_features=10, out_features=4, bias=False)
    )
  )
)
2019-07-10 16:59:48,052:INFO: Namespace(model_dir='experiments/GAT', restore_file=None)
2019-07-10 16:59:48,147:INFO: ----Data statistics------'
      #Edges 14
      #Classes 2
      #Train samples 3
      #Val samples 1
      #Test samples 1
2019-07-10 16:59:48,148:INFO: GAT(
  (gat_layers): ModuleList(
    (0): GraphAttention(
      (fc): Linear(in_features=323, out_features=10, bias=False)
      (leaky_relu): LeakyReLU(negative_slope=0.2)
    )
    (1): GraphAttention(
      (fc): Linear(in_features=10, out_features=10, bias=False)
      (leaky_relu): LeakyReLU(negative_slope=0.2)
      (res_fc): Linear(in_features=10, out_features=10, bias=False)
    )
    (2): GraphAttention(
      (fc): Linear(in_features=10, out_features=4, bias=False)
      (leaky_relu): LeakyReLU(negative_slope=0.2)
      (res_fc): Linear(in_features=10, out_features=4, bias=False)
    )
  )
)
2019-07-10 17:00:11,169:INFO: Namespace(model_dir='experiments/GAT', restore_file=None)
2019-07-10 17:00:11,248:INFO: ----Data statistics------'
      #Edges 14
      #Classes 2
      #Train samples 3
      #Val samples 1
      #Test samples 1
2019-07-10 17:00:11,249:INFO: GAT(
  (gat_layers): ModuleList(
    (0): GraphAttention(
      (fc): Linear(in_features=323, out_features=10, bias=False)
      (leaky_relu): LeakyReLU(negative_slope=0.2)
    )
    (1): GraphAttention(
      (fc): Linear(in_features=10, out_features=10, bias=False)
      (leaky_relu): LeakyReLU(negative_slope=0.2)
      (res_fc): Linear(in_features=10, out_features=10, bias=False)
    )
    (2): GraphAttention(
      (fc): Linear(in_features=10, out_features=4, bias=False)
      (leaky_relu): LeakyReLU(negative_slope=0.2)
      (res_fc): Linear(in_features=10, out_features=4, bias=False)
    )
  )
)
2019-07-10 17:01:12,674:INFO: Namespace(model_dir='experiments/GAT', restore_file=None)
2019-07-10 17:01:12,750:INFO: ----Data statistics------'
      #Edges 14
      #Classes 2
      #Train samples 3
      #Val samples 1
      #Test samples 1
2019-07-10 17:01:12,751:INFO: GAT(
  (gat_layers): ModuleList(
    (0): GraphAttention(
      (fc): Linear(in_features=323, out_features=10, bias=False)
      (leaky_relu): LeakyReLU(negative_slope=0.2)
    )
    (1): GraphAttention(
      (fc): Linear(in_features=10, out_features=10, bias=False)
      (leaky_relu): LeakyReLU(negative_slope=0.2)
      (res_fc): Linear(in_features=10, out_features=10, bias=False)
    )
    (2): GraphAttention(
      (fc): Linear(in_features=10, out_features=4, bias=False)
      (leaky_relu): LeakyReLU(negative_slope=0.2)
      (res_fc): Linear(in_features=10, out_features=4, bias=False)
    )
  )
)
2019-07-10 17:01:48,692:INFO: Namespace(model_dir='experiments/GAT', restore_file=None)
2019-07-10 17:01:48,769:INFO: ----Data statistics------'
      #Edges 14
      #Classes 2
      #Train samples 3
      #Val samples 1
      #Test samples 1
2019-07-10 17:01:48,770:INFO: GAT(
  (gat_layers): ModuleList(
    (0): GraphAttention(
      (fc): Linear(in_features=323, out_features=10, bias=False)
      (leaky_relu): LeakyReLU(negative_slope=0.2)
    )
    (1): GraphAttention(
      (fc): Linear(in_features=10, out_features=10, bias=False)
      (leaky_relu): LeakyReLU(negative_slope=0.2)
      (res_fc): Linear(in_features=10, out_features=10, bias=False)
    )
    (2): GraphAttention(
      (fc): Linear(in_features=10, out_features=4, bias=False)
      (leaky_relu): LeakyReLU(negative_slope=0.2)
      (res_fc): Linear(in_features=10, out_features=4, bias=False)
    )
  )
)
2019-07-10 17:02:27,762:INFO: Namespace(model_dir='experiments/GAT', restore_file=None)
2019-07-10 17:02:27,851:INFO: ----Data statistics------'
      #Edges 14
      #Classes 2
      #Train samples 3
      #Val samples 1
      #Test samples 1
2019-07-10 17:02:27,852:INFO: GAT(
  (gat_layers): ModuleList(
    (0): GraphAttention(
      (fc): Linear(in_features=323, out_features=10, bias=False)
      (leaky_relu): LeakyReLU(negative_slope=0.2)
    )
    (1): GraphAttention(
      (fc): Linear(in_features=10, out_features=10, bias=False)
      (leaky_relu): LeakyReLU(negative_slope=0.2)
      (res_fc): Linear(in_features=10, out_features=10, bias=False)
    )
    (2): GraphAttention(
      (fc): Linear(in_features=10, out_features=4, bias=False)
      (leaky_relu): LeakyReLU(negative_slope=0.2)
      (res_fc): Linear(in_features=10, out_features=4, bias=False)
    )
  )
)
2019-07-10 17:02:47,735:INFO: Namespace(model_dir='experiments/GAT', restore_file=None)
2019-07-10 17:02:47,816:INFO: ----Data statistics------'
      #Edges 14
      #Classes 2
      #Train samples 3
      #Val samples 1
      #Test samples 1
2019-07-10 17:02:47,817:INFO: GAT(
  (gat_layers): ModuleList(
    (0): GraphAttention(
      (fc): Linear(in_features=323, out_features=10, bias=False)
      (leaky_relu): LeakyReLU(negative_slope=0.2)
    )
    (1): GraphAttention(
      (fc): Linear(in_features=10, out_features=10, bias=False)
      (leaky_relu): LeakyReLU(negative_slope=0.2)
      (res_fc): Linear(in_features=10, out_features=10, bias=False)
    )
    (2): GraphAttention(
      (fc): Linear(in_features=10, out_features=4, bias=False)
      (leaky_relu): LeakyReLU(negative_slope=0.2)
      (res_fc): Linear(in_features=10, out_features=4, bias=False)
    )
  )
)
2019-07-10 17:03:11,112:INFO: Namespace(model_dir='experiments/GAT', restore_file=None)
2019-07-10 17:03:11,192:INFO: ----Data statistics------'
      #Edges 14
      #Classes 2
      #Train samples 3
      #Val samples 1
      #Test samples 1
2019-07-10 17:03:11,193:INFO: GAT(
  (gat_layers): ModuleList(
    (0): GraphAttention(
      (fc): Linear(in_features=323, out_features=10, bias=False)
      (leaky_relu): LeakyReLU(negative_slope=0.2)
    )
    (1): GraphAttention(
      (fc): Linear(in_features=10, out_features=10, bias=False)
      (leaky_relu): LeakyReLU(negative_slope=0.2)
      (res_fc): Linear(in_features=10, out_features=10, bias=False)
    )
    (2): GraphAttention(
      (fc): Linear(in_features=10, out_features=4, bias=False)
      (leaky_relu): LeakyReLU(negative_slope=0.2)
      (res_fc): Linear(in_features=10, out_features=4, bias=False)
    )
  )
)
2019-07-10 17:03:11,222:INFO: Epoch 00000 | Time(s) nan | TrainLoss 1.3348 | TrainAcc 0.6667 |ValLoss 2.1645 | ValAcc 0.0000 |  ETputs(KTEPS) nan
2019-07-10 17:03:11,240:INFO: Epoch 00001 | Time(s) nan | TrainLoss 0.9780 | TrainAcc 0.6667 |ValLoss 2.5504 | ValAcc 0.0000 |  ETputs(KTEPS) nan
2019-07-10 17:03:11,256:INFO: Epoch 00002 | Time(s) nan | TrainLoss 0.7051 | TrainAcc 0.6667 |ValLoss 2.5707 | ValAcc 0.0000 |  ETputs(KTEPS) nan
…
2019-07-10 17:03:11,317:INFO: Epoch 00006 | Time(s) 0.0085 | TrainLoss 0.5401 | TrainAcc 0.6667 |ValLoss 2.7480 | ValAcc 0.0000 |  ETputs(KTEPS) 1.65
2019-07-10 17:03:11,333:INFO: Epoch 00007 | Time(s) 0.0086 | TrainLoss 0.5033 | TrainAcc 0.6667 |ValLoss 3.0642 | ValAcc 0.0000 |  ETputs(KTEPS) 1.63
2019-07-10 17:03:11,348:INFO: Early stopping
2019-07-10 17:23:26,715:INFO: Namespace(model_dir='experiments/GAT', restore_file=None)
2019-07-10 17:23:26,798:INFO: ----Data statistics------'
      #Edges 14
      #Classes 2
      #Train samples 3
      #Val samples 1
      #Test samples 1
2019-07-10 17:23:26,799:INFO: GAT(
  (gat_layers): ModuleList(
    (0): GraphAttention(
      (fc): Linear(in_features=323, out_features=10, bias=False)
      (leaky_relu): LeakyReLU(negative_slope=0.2)
    )
    (1): GraphAttention(
      (fc): Linear(in_features=10, out_features=10, bias=False)
      (leaky_relu): LeakyReLU(negative_slope=0.2)
      (res_fc): Linear(in_features=10, out_features=10, bias=False)
    )
    (2): GraphAttention(
      (fc): Linear(in_features=10, out_features=4, bias=False)
      (leaky_relu): LeakyReLU(negative_slope=0.2)
      (res_fc): Linear(in_features=10, out_features=4, bias=False)
    )
  )
)
2019-07-10 17:23:26,833:INFO: Epoch 00000 | Time(s) nan | TrainLoss 1.3601 | TrainAcc 0.3333 |ValLoss 0.6145 | ValAcc 1.0000 |  ETputs(KTEPS) nan
2019-07-10 17:23:26,851:INFO: Epoch 00001 | Time(s) nan | TrainLoss 0.8710 | TrainAcc 0.3333 |ValLoss 0.9794 | ValAcc 0.0000 |  ETputs(KTEPS) nan
2019-07-10 17:23:26,865:INFO: Epoch 00002 | Time(s) nan | TrainLoss 0.6395 | TrainAcc 0.6667 |ValLoss 1.4810 | ValAcc 0.0000 |  ETputs(KTEPS) nan
…
2019-08-20 13:33:48,586:INFO: Reading ./dmt/data/test_data/adj.txt into dgl graph
2019-08-20 13:33:48,587:INFO: Number of edges found in ./dmt/data/test_data/adj.txt: 7
2019-08-20 13:33:48,587:INFO: *** Number of edges after filtering : 6
2019-08-20 13:33:48,587:INFO: {'edge_features': Scheme(shape=(4,), dtype=torch.float32)}
2019-08-20 13:33:48,589:INFO: Adding self-loop
2019-08-20 13:33:48,593:INFO: ----Data statistics------'
      #Edges 12
      #Classes 2
      #Train samples 3
      #Val samples 1
      #Test samples 1
2019-08-20 13:33:48,595:INFO: GAT(
  (gat_layers): ModuleList(
    (0): GraphAttention(
      (fc): Linear(in_features=6, out_features=10, bias=False)
      (leaky_relu): LeakyReLU(negative_slope=0.2)
    )
    (1): GraphAttention(
      (fc): Linear(in_features=10, out_features=10, bias=False)
      (leaky_relu): LeakyReLU(negative_slope=0.2)
      (res_fc): Linear(in_features=10, out_features=10, bias=False)
    )
    (2): GraphAttention(
      (fc): Linear(in_features=10, out_features=4, bias=False)
      (leaky_relu): LeakyReLU(negative_slope=0.2)
      (res_fc): Linear(in_features=10, out_features=4, bias=False)
    )
  )
)
2019-08-20 13:33:48,596:INFO: [1;31;40mThe model: GAT is not supported yet.
2019-08-20 13:40:07,052:INFO: Namespace(data_dir='./dmt/data/test_data', model_dir='./experiments/GAT/', preprocess=True, restore_file=None)
2019-08-20 13:40:07,053:INFO: loading data...
2019-08-20 13:40:07,053:INFO: Loading Node Features...
2019-08-20 13:40:07,056:INFO: Loading Labels...
…
