2019-07-16 11:39:11,640:INFO: Namespace(model_dir='experiments/MiniBatchEdgeProp', restore_file=None)
2019-07-16 11:39:11,721:INFO: ----Data statistics------'
      #Edges 14
      #Classes 2
      #Train samples 3
      #Val samples 1
      #Test samples 1
2019-07-16 11:39:11,722:INFO: MiniBatchEdgeProp(
  (input_layer_e): OneLayerNN(
    (fc): Linear(in_features=8, out_features=5, bias=True)
    (fc2): Linear(in_features=5, out_features=5, bias=True)
  )
  (node_layers): ModuleList(
    (0): NodeUpdate(
      (layer): OneLayerNN(
        (fc): Linear(in_features=10, out_features=5, bias=True)
        (fc2): Linear(in_features=5, out_features=5, bias=True)
      )
    )
  )
  (phi): ModuleList(
    (0): OneLayerNN(
      (fc): Linear(in_features=328, out_features=5, bias=True)
      (fc2): Linear(in_features=5, out_features=5, bias=True)
    )
  )
  (fc): Linear(in_features=5, out_features=2, bias=True)
)
2019-07-16 11:39:11,755:INFO: Epoch 00000 | Time(s) nan | 
TrainLoss 0.9238 | TrainAcc 0.3333 | TrainPrecision 0.1667 | TrainRecall 0.5000 | TrainMacroF1 0.2500 | TrainMicroF1 0.3333
ValLoss 1.2086   | ValAcc 0.0000   | ValPrecision0.0000    | ValRecall 0.0000   | ValMacroF1 0.0000   | ValMicroF1 0.0000
ETputs(KTEPS) nan

2019-07-16 11:39:11,767:INFO: Epoch 00001 | Time(s) nan | 
…
2019-07-17 22:23:25,814:INFO: Reading ./dmt/data/test_data/adj.txt into dgl graph
2019-07-17 22:23:25,814:INFO: Number of edges found in ./dmt/data/test_data/adj.txt: 7
2019-07-17 22:23:25,815:INFO: *** Number of edges after filtering : 6
2019-07-17 22:23:25,816:INFO: {'edge_features': Scheme(shape=(4,), dtype=torch.float32)}
2019-07-17 22:23:25,816:INFO: Adding self-loop
2019-07-17 22:23:25,821:INFO: ----Data statistics------'
      #Edges 12
      #Classes 2
      #Train samples 3
      #Val samples 1
      #Test samples 1
2019-07-17 22:23:25,828:INFO: MiniBatchEdgeProp(
  (input_layer_e): OneLayerNN(
    (fc): Linear(in_features=4, out_features=5, bias=True)
    (fc2): Linear(in_features=5, out_features=5, bias=True)
  )
  (node_layers): ModuleList(
    (0): NodeUpdate(
      (layer): OneLayerNN(
        (fc): Linear(in_features=10, out_features=5, bias=True)
        (fc2): Linear(in_features=5, out_features=5, bias=True)
      )
    )
  )
  (phi): ModuleList(
    (0): OneLayerNN(
      (fc): Linear(in_features=328, out_features=5, bias=True)
      (fc2): Linear(in_features=5, out_features=5, bias=True)
    )
  )
  (fc): Linear(in_features=5, out_features=2, bias=True)
)
2019-07-17 22:24:11,448:INFO: Namespace(data_dir='./dmt/data/test_data/', model_dir='experiments/MiniBatchEdgeProp', preprocess=True, restore_file=None)
2019-07-17 22:24:11,449:INFO: loading data...
2019-07-17 22:24:11,449:INFO: Loading Node Features...
2019-07-17 22:24:11,462:INFO: Loading Labels...
2019-07-17 22:24:11,464:INFO: Mapping vertex id to consecutive integers
…
