…
2019-07-14 19:49:31,080:INFO: Namespace(model_dir='experiments/MiniBatchDGI', restore_file=None)
2019-07-14 19:49:31,160:INFO: ----Data statistics------'
      #Edges 14
      #Classes 2
      #Train samples 3
      #Val samples 1
      #Test samples 1
2019-07-14 19:49:52,342:INFO: Namespace(model_dir='experiments/MiniBatchDGI', restore_file=None)
2019-07-14 19:49:52,422:INFO: ----Data statistics------'
      #Edges 14
      #Classes 2
      #Train samples 3
      #Val samples 1
      #Test samples 1
2019-07-14 19:49:52,426:INFO: DGI(
  (encoder): Encoder(
    (conv): MiniBatchEdgeProp(
      (input_layer_e): OneLayerNN(
        (fc): Linear(in_features=8, out_features=128, bias=True)
        (fc2): Linear(in_features=128, out_features=128, bias=True)
      )
      (node_layers): ModuleList(
        (0): NodeUpdate(
          (layer): OneLayerNN(
            (fc): Linear(in_features=256, out_features=128, bias=True)
            (fc2): Linear(in_features=128, out_features=128, bias=True)
          )
        )
      )
      (phi): ModuleList(
        (0): OneLayerNN(
          (fc): Linear(in_features=451, out_features=128, bias=True)
          (fc2): Linear(in_features=128, out_features=128, bias=True)
        )
      )
      (fc): Linear(in_features=128, out_features=128, bias=True)
    )
  )
  (discriminator): Discriminator()
  (loss): BCEWithLogitsLoss()
)
2019-07-14 19:50:44,795:INFO: Namespace(model_dir='experiments/MiniBatchDGI', restore_file=None)
2019-07-14 19:50:44,878:INFO: ----Data statistics------'
      #Edges 14
      #Classes 2
      #Train samples 3
      #Val samples 1
      #Test samples 1
2019-07-14 19:50:44,883:INFO: DGI(
  (encoder): Encoder(
    (conv): MiniBatchEdgeProp(
      (input_layer_e): OneLayerNN(
        (fc): Linear(in_features=8, out_features=128, bias=True)
        (fc2): Linear(in_features=128, out_features=128, bias=True)
      )
      (node_layers): ModuleList(
        (0): NodeUpdate(
          (layer): OneLayerNN(
            (fc): Linear(in_features=256, out_features=128, bias=True)
            (fc2): Linear(in_features=128, out_features=128, bias=True)
          )
        )
      )
      (phi): ModuleList(
        (0): OneLayerNN(
          (fc): Linear(in_features=451, out_features=128, bias=True)
          (fc2): Linear(in_features=128, out_features=128, bias=True)
        )
      )
      (fc): Linear(in_features=128, out_features=128, bias=True)
    )
  )
  (discriminator): Discriminator()
  (loss): BCEWithLogitsLoss()
)
2019-07-14 19:51:19,053:INFO: Namespace(model_dir='experiments/MiniBatchDGI', restore_file=None)
2019-07-14 19:51:19,148:INFO: ----Data statistics------'
      #Edges 14
      #Classes 2
      #Train samples 3
      #Val samples 1
      #Test samples 1
2019-07-14 19:51:19,169:INFO: DGI(
  (encoder): Encoder(
    (conv): MiniBatchEdgeProp(
      (input_layer_e): OneLayerNN(
        (fc): Linear(in_features=8, out_features=128, bias=True)
        (fc2): Linear(in_features=128, out_features=128, bias=True)
      )
      (node_layers): ModuleList(
        (0): NodeUpdate(
          (layer): OneLayerNN(
            (fc): Linear(in_features=256, out_features=128, bias=True)
            (fc2): Linear(in_features=128, out_features=128, bias=True)
          )
        )
      )
      (phi): ModuleList(
        (0): OneLayerNN(
          (fc): Linear(in_features=451, out_features=128, bias=True)
          (fc2): Linear(in_features=128, out_features=128, bias=True)
        )
      )
      (fc): Linear(in_features=128, out_features=128, bias=True)
    )
  )
  (discriminator): Discriminator()
  (loss): BCEWithLogitsLoss()
)
2019-07-14 20:19:25,601:INFO: Namespace(model_dir='experiments/MiniBatchDGI', restore_file=None)
2019-07-14 20:19:25,680:INFO: ----Data statistics------'
      #Edges 14
      #Classes 2
      #Train samples 3
      #Val samples 1
      #Test samples 1
2019-07-14 20:19:25,689:INFO: DGI(
  (encoder): Encoder(
    (conv): MiniBatchEdgeProp(
      (input_layer_e): OneLayerNN(
        (fc): Linear(in_features=8, out_features=128, bias=True)
        (fc2): Linear(in_features=128, out_features=128, bias=True)
      )
      (node_layers): ModuleList(
        (0): NodeUpdate(
          (layer): OneLayerNN(
            (fc): Linear(in_features=256, out_features=128, bias=True)
            (fc2): Linear(in_features=128, out_features=128, bias=True)
          )
        )
        (1): NodeUpdate(
          (layer): OneLayerNN(
            (fc): Linear(in_features=256, out_features=128, bias=True)
            (fc2): Linear(in_features=128, out_features=128, bias=True)
          )
        )
      )
      (phi): ModuleList(
        (0): OneLayerNN(
          (fc): Linear(in_features=451, out_features=128, bias=True)
          (fc2): Linear(in_features=128, out_features=128, bias=True)
        )
        (1): OneLayerNN(
          (fc): Linear(in_features=256, out_features=128, bias=True)
          (fc2): Linear(in_features=128, out_features=128, bias=True)
        )
      )
      (fc): Linear(in_features=128, out_features=128, bias=True)
    )
  )
  (discriminator): Discriminator()
  (loss): BCEWithLogitsLoss()
)
2019-07-14 20:20:29,173:INFO: Namespace(model_dir='experiments/MiniBatchDGI', restore_file=None)
2019-07-14 20:20:29,248:INFO: ----Data statistics------'
      #Edges 14
      #Classes 2
      #Train samples 3
      #Val samples 1
      #Test samples 1
2019-07-14 20:20:29,254:INFO: DGI(
  (encoder): Encoder(
    (conv): MiniBatchEdgeProp(
      (input_layer_e): OneLayerNN(
        (fc): Linear(in_features=8, out_features=128, bias=True)
        (fc2): Linear(in_features=128, out_features=128, bias=True)
      )
      (node_layers): ModuleList(
        (0): NodeUpdate(
          (layer): OneLayerNN(
            (fc): Linear(in_features=256, out_features=128, bias=True)
            (fc2): Linear(in_features=128, out_features=128, bias=True)
          )
        )
        (1): NodeUpdate(
          (layer): OneLayerNN(
            (fc): Linear(in_features=256, out_features=128, bias=True)
            (fc2): Linear(in_features=128, out_features=128, bias=True)
          )
        )
      )
      (phi): ModuleList(
        (0): OneLayerNN(
          (fc): Linear(in_features=451, out_features=128, bias=True)
          (fc2): Linear(in_features=128, out_features=128, bias=True)
        )
        (1): OneLayerNN(
          (fc): Linear(in_features=256, out_features=128, bias=True)
          (fc2): Linear(in_features=128, out_features=128, bias=True)
        )
      )
      (fc): Linear(in_features=128, out_features=128, bias=True)
    )
  )
  (discriminator): Discriminator()
  (loss): BCEWithLogitsLoss()
)
2019-07-14 20:20:56,897:INFO: Namespace(model_dir='experiments/MiniBatchDGI', restore_file=None)
2019-07-14 20:20:56,975:INFO: ----Data statistics------'
      #Edges 14
      #Classes 2
      #Train samples 3
      #Val samples 1
      #Test samples 1
2019-07-14 20:20:56,983:INFO: DGI(
  (encoder): Encoder(
    (conv): MiniBatchEdgeProp(
      (input_layer_e): OneLayerNN(
        (fc): Linear(in_features=8, out_features=128, bias=True)
        (fc2): Linear(in_features=128, out_features=128, bias=True)
      )
      (node_layers): ModuleList(
        (0): NodeUpdate(
          (layer): OneLayerNN(
            (fc): Linear(in_features=256, out_features=128, bias=True)
            (fc2): Linear(in_features=128, out_features=128, bias=True)
          )
        )
        (1): NodeUpdate(
          (layer): OneLayerNN(
            (fc): Linear(in_features=256, out_features=128, bias=True)
            (fc2): Linear(in_features=128, out_features=128, bias=True)
          )
        )
      )
      (phi): ModuleList(
        (0): OneLayerNN(
          (fc): Linear(in_features=451, out_features=128, bias=True)
          (fc2): Linear(in_features=128, out_features=128, bias=True)
        )
        (1): OneLayerNN(
          (fc): Linear(in_features=256, out_features=128, bias=True)
          (fc2): Linear(in_features=128, out_features=128, bias=True)
        )
      )
      (fc): Linear(in_features=128, out_features=128, bias=True)
    )
  )
  (discriminator): Discriminator()
  (loss): BCEWithLogitsLoss()
)
2019-07-14 20:28:03,316:INFO: Namespace(model_dir='experiments/MiniBatchDGI', restore_file=None)
2019-07-14 20:28:03,395:INFO: ----Data statistics------'
      #Edges 14
      #Classes 2
      #Train samples 3
      #Val samples 1
      #Test samples 1
2019-07-14 20:28:03,403:INFO: DGI(
  (encoder): Encoder(
    (conv): MiniBatchEdgeProp(
      (input_layer_e): OneLayerNN(
        (fc): Linear(in_features=8, out_features=128, bias=True)
        (fc2): Linear(in_features=128, out_features=128, bias=True)
      )
      (node_layers): ModuleList(
        (0): NodeUpdate(
          (layer): OneLayerNN(
            (fc): Linear(in_features=256, out_features=128, bias=True)
            (fc2): Linear(in_features=128, out_features=128, bias=True)
          )
        )
        (1): NodeUpdate(
          (layer): OneLayerNN(
            (fc): Linear(in_features=256, out_features=128, bias=True)
            (fc2): Linear(in_features=128, out_features=128, bias=True)
          )
        )
      )
      (phi): ModuleList(
        (0): OneLayerNN(
          (fc): Linear(in_features=451, out_features=128, bias=True)
          (fc2): Linear(in_features=128, out_features=128, bias=True)
        )
        (1): OneLayerNN(
          (fc): Linear(in_features=256, out_features=128, bias=True)
          (fc2): Linear(in_features=128, out_features=128, bias=True)
        )
      )
      (fc): Linear(in_features=128, out_features=128, bias=True)
    )
  )
  (discriminator): Discriminator()
  (loss): BCEWithLogitsLoss()
)
2019-07-14 20:29:40,253:INFO: Namespace(model_dir='experiments/MiniBatchDGI', restore_file=None)
2019-07-14 20:29:40,333:INFO: ----Data statistics------'
      #Edges 14
      #Classes 2
      #Train samples 3
      #Val samples 1
      #Test samples 1
2019-07-14 20:29:40,341:INFO: DGI(
  (encoder): Encoder(
    (conv): MiniBatchEdgeProp(
      (input_layer_e): OneLayerNN(
        (fc): Linear(in_features=8, out_features=128, bias=True)
        (fc2): Linear(in_features=128, out_features=128, bias=True)
      )
      (node_layers): ModuleList(
        (0): NodeUpdate(
          (layer): OneLayerNN(
            (fc): Linear(in_features=256, out_features=128, bias=True)
            (fc2): Linear(in_features=128, out_features=128, bias=True)
          )
        )
        (1): NodeUpdate(
          (layer): OneLayerNN(
            (fc): Linear(in_features=256, out_features=128, bias=True)
            (fc2): Linear(in_features=128, out_features=128, bias=True)
          )
        )
      )
      (phi): ModuleList(
        (0): OneLayerNN(
          (fc): Linear(in_features=451, out_features=128, bias=True)
          (fc2): Linear(in_features=128, out_features=128, bias=True)
        )
        (1): OneLayerNN(
          (fc): Linear(in_features=256, out_features=128, bias=True)
          (fc2): Linear(in_features=128, out_features=128, bias=True)
        )
      )
      (fc): Linear(in_features=128, out_features=128, bias=True)
    )
  )
  (discriminator): Discriminator()
  (loss): BCEWithLogitsLoss()
)
2019-07-14 20:30:59,138:INFO: Namespace(model_dir='experiments/MiniBatchDGI', restore_file=None)
2019-07-14 20:30:59,216:INFO: ----Data statistics------'
      #Edges 14
      #Classes 2
      #Train samples 3
      #Val samples 1
      #Test samples 1
2019-07-14 20:30:59,223:INFO: DGI(
  (encoder): Encoder(
    (conv): MiniBatchEdgeProp(
      (input_layer_e): OneLayerNN(
        (fc): Linear(in_features=8, out_features=128, bias=True)
        (fc2): Linear(in_features=128, out_features=128, bias=True)
      )
      (node_layers): ModuleList(
        (0): NodeUpdate(
          (layer): OneLayerNN(
            (fc): Linear(in_features=256, out_features=128, bias=True)
            (fc2): Linear(in_features=128, out_features=128, bias=True)
          )
        )
        (1): NodeUpdate(
          (layer): OneLayerNN(
            (fc): Linear(in_features=256, out_features=128, bias=True)
            (fc2): Linear(in_features=128, out_features=128, bias=True)
          )
        )
      )
      (phi): ModuleList(
        (0): OneLayerNN(
          (fc): Linear(in_features=451, out_features=128, bias=True)
          (fc2): Linear(in_features=128, out_features=128, bias=True)
        )
        (1): OneLayerNN(
          (fc): Linear(in_features=256, out_features=128, bias=True)
          (fc2): Linear(in_features=128, out_features=128, bias=True)
        )
      )
      (fc): Linear(in_features=128, out_features=128, bias=True)
    )
  )
  (discriminator): Discriminator()
  (loss): BCEWithLogitsLoss()
)
2019-07-14 20:31:34,863:INFO: Namespace(model_dir='experiments/MiniBatchDGI', restore_file=None)
2019-07-14 20:31:34,938:INFO: ----Data statistics------'
      #Edges 14
      #Classes 2
      #Train samples 3
      #Val samples 1
      #Test samples 1
2019-07-14 20:31:34,945:INFO: DGI(
  (encoder): Encoder(
    (conv): MiniBatchEdgeProp(
      (input_layer_e): OneLayerNN(
        (fc): Linear(in_features=8, out_features=128, bias=True)
        (fc2): Linear(in_features=128, out_features=128, bias=True)
      )
      (node_layers): ModuleList(
        (0): NodeUpdate(
          (layer): OneLayerNN(
            (fc): Linear(in_features=256, out_features=128, bias=True)
            (fc2): Linear(in_features=128, out_features=128, bias=True)
          )
        )
        (1): NodeUpdate(
          (layer): OneLayerNN(
            (fc): Linear(in_features=256, out_features=128, bias=True)
            (fc2): Linear(in_features=128, out_features=128, bias=True)
          )
        )
      )
      (phi): ModuleList(
        (0): OneLayerNN(
          (fc): Linear(in_features=451, out_features=128, bias=True)
          (fc2): Linear(in_features=128, out_features=128, bias=True)
        )
        (1): OneLayerNN(
          (fc): Linear(in_features=256, out_features=128, bias=True)
          (fc2): Linear(in_features=128, out_features=128, bias=True)
        )
      )
      (fc): Linear(in_features=128, out_features=128, bias=True)
    )
  )
  (discriminator): Discriminator()
  (loss): BCEWithLogitsLoss()
)
2019-07-14 20:31:48,214:INFO: Namespace(model_dir='experiments/MiniBatchDGI', restore_file=None)
2019-07-14 20:31:48,290:INFO: ----Data statistics------'
      #Edges 14
      #Classes 2
      #Train samples 3
      #Val samples 1
      #Test samples 1
2019-07-14 20:31:48,298:INFO: DGI(
  (encoder): Encoder(
    (conv): MiniBatchEdgeProp(
      (input_layer_e): OneLayerNN(
        (fc): Linear(in_features=8, out_features=128, bias=True)
        (fc2): Linear(in_features=128, out_features=128, bias=True)
      )
      (node_layers): ModuleList(
        (0): NodeUpdate(
          (layer): OneLayerNN(
            (fc): Linear(in_features=256, out_features=128, bias=True)
            (fc2): Linear(in_features=128, out_features=128, bias=True)
          )
        )
        (1): NodeUpdate(
          (layer): OneLayerNN(
            (fc): Linear(in_features=256, out_features=128, bias=True)
            (fc2): Linear(in_features=128, out_features=128, bias=True)
          )
        )
      )
      (phi): ModuleList(
        (0): OneLayerNN(
          (fc): Linear(in_features=451, out_features=128, bias=True)
          (fc2): Linear(in_features=128, out_features=128, bias=True)
        )
        (1): OneLayerNN(
          (fc): Linear(in_features=256, out_features=128, bias=True)
          (fc2): Linear(in_features=128, out_features=128, bias=True)
        )
      )
      (fc): Linear(in_features=128, out_features=128, bias=True)
    )
  )
  (discriminator): Discriminator()
  (loss): BCEWithLogitsLoss()
)
2019-07-14 20:32:31,262:INFO: Namespace(model_dir='experiments/MiniBatchDGI', restore_file=None)
2019-07-14 20:32:31,345:INFO: ----Data statistics------'
      #Edges 14
      #Classes 2
      #Train samples 3
      #Val samples 1
      #Test samples 1
2019-07-14 20:32:31,351:INFO: DGI(
  (encoder): Encoder(
    (conv): MiniBatchEdgeProp(
      (input_layer_e): OneLayerNN(
        (fc): Linear(in_features=8, out_features=128, bias=True)
        (fc2): Linear(in_features=128, out_features=128, bias=True)
      )
      (node_layers): ModuleList(
        (0): NodeUpdate(
          (layer): OneLayerNN(
            (fc): Linear(in_features=256, out_features=128, bias=True)
            (fc2): Linear(in_features=128, out_features=128, bias=True)
          )
        )
        (1): NodeUpdate(
          (layer): OneLayerNN(
            (fc): Linear(in_features=256, out_features=128, bias=True)
            (fc2): Linear(in_features=128, out_features=128, bias=True)
          )
        )
      )
      (phi): ModuleList(
        (0): OneLayerNN(
          (fc): Linear(in_features=451, out_features=128, bias=True)
          (fc2): Linear(in_features=128, out_features=128, bias=True)
        )
        (1): OneLayerNN(
          (fc): Linear(in_features=256, out_features=128, bias=True)
          (fc2): Linear(in_features=128, out_features=128, bias=True)
        )
      )
      (fc): Linear(in_features=128, out_features=128, bias=True)
    )
  )
  (discriminator): Discriminator()
  (loss): BCEWithLogitsLoss()
)
2019-07-14 20:32:51,593:INFO: Namespace(model_dir='experiments/MiniBatchDGI', restore_file=None)
2019-07-14 20:32:51,672:INFO: ----Data statistics------'
      #Edges 14
      #Classes 2
      #Train samples 3
      #Val samples 1
      #Test samples 1
2019-07-14 20:32:51,678:INFO: DGI(
  (encoder): Encoder(
    (conv): MiniBatchEdgeProp(
      (input_layer_e): OneLayerNN(
        (fc): Linear(in_features=8, out_features=128, bias=True)
        (fc2): Linear(in_features=128, out_features=128, bias=True)
      )
      (node_layers): ModuleList(
        (0): NodeUpdate(
          (layer): OneLayerNN(
            (fc): Linear(in_features=256, out_features=128, bias=True)
            (fc2): Linear(in_features=128, out_features=128, bias=True)
          )
        )
        (1): NodeUpdate(
          (layer): OneLayerNN(
            (fc): Linear(in_features=256, out_features=128, bias=True)
            (fc2): Linear(in_features=128, out_features=128, bias=True)
          )
        )
      )
      (phi): ModuleList(
        (0): OneLayerNN(
          (fc): Linear(in_features=451, out_features=128, bias=True)
          (fc2): Linear(in_features=128, out_features=128, bias=True)
        )
        (1): OneLayerNN(
          (fc): Linear(in_features=256, out_features=128, bias=True)
          (fc2): Linear(in_features=128, out_features=128, bias=True)
        )
      )
      (fc): Linear(in_features=128, out_features=128, bias=True)
    )
  )
  (discriminator): Discriminator()
  (loss): BCEWithLogitsLoss()
)
2019-07-14 20:34:49,153:INFO: Namespace(model_dir='experiments/MiniBatchDGI', restore_file=None)
2019-07-14 20:34:49,233:INFO: ----Data statistics------'
      #Edges 14
      #Classes 2
      #Train samples 3
      #Val samples 1
      #Test samples 1
2019-07-14 20:34:49,243:INFO: DGI(
  (encoder): Encoder(
    (conv): MiniBatchEdgeProp(
      (input_layer_e): OneLayerNN(
        (fc): Linear(in_features=8, out_features=128, bias=True)
        (fc2): Linear(in_features=128, out_features=128, bias=True)
      )
      (node_layers): ModuleList(
        (0): NodeUpdate(
          (layer): OneLayerNN(
            (fc): Linear(in_features=256, out_features=128, bias=True)
            (fc2): Linear(in_features=128, out_features=128, bias=True)
          )
        )
        (1): NodeUpdate(
          (layer): OneLayerNN(
            (fc): Linear(in_features=256, out_features=128, bias=True)
            (fc2): Linear(in_features=128, out_features=128, bias=True)
          )
        )
      )
      (phi): ModuleList(
        (0): OneLayerNN(
          (fc): Linear(in_features=451, out_features=128, bias=True)
          (fc2): Linear(in_features=128, out_features=128, bias=True)
        )
        (1): OneLayerNN(
          (fc): Linear(in_features=256, out_features=128, bias=True)
          (fc2): Linear(in_features=128, out_features=128, bias=True)
        )
      )
      (fc): Linear(in_features=128, out_features=128, bias=True)
    )
  )
  (discriminator): Discriminator()
  (loss): BCEWithLogitsLoss()
)
2019-07-14 21:21:36,525:INFO: Namespace(model_dir='experiments/MiniBatchDGI', restore_file=None)
2019-07-14 21:21:36,623:INFO: ----Data statistics------'
      #Edges 14
      #Classes 2
      #Train samples 3
      #Val samples 1
      #Test samples 1
2019-07-14 21:21:36,638:INFO: DGI(
  (encoder): Encoder(
    (conv): MiniBatchEdgeProp(
      (input_layer_e): OneLayerNN(
        (fc): Linear(in_features=8, out_features=128, bias=True)
        (fc2): Linear(in_features=128, out_features=128, bias=True)
      )
      (node_layers): ModuleList(
        (0): NodeUpdate(
          (layer): OneLayerNN(
            (fc): Linear(in_features=256, out_features=128, bias=True)
            (fc2): Linear(in_features=128, out_features=128, bias=True)
          )
        )
        (1): NodeUpdate(
          (layer): OneLayerNN(
            (fc): Linear(in_features=256, out_features=128, bias=True)
            (fc2): Linear(in_features=128, out_features=128, bias=True)
          )
        )
      )
      (phi): ModuleList(
        (0): OneLayerNN(
          (fc): Linear(in_features=451, out_features=128, bias=True)
          (fc2): Linear(in_features=128, out_features=128, bias=True)
        )
        (1): OneLayerNN(
          (fc): Linear(in_features=256, out_features=128, bias=True)
          (fc2): Linear(in_features=128, out_features=128, bias=True)
        )
      )
      (fc): Linear(in_features=128, out_features=128, bias=True)
    )
  )
  (discriminator): Discriminator()
  (loss): BCEWithLogitsLoss()
)
2019-07-14 21:24:14,668:INFO: Namespace(model_dir='experiments/MiniBatchDGI', restore_file=None)
2019-07-14 21:24:14,759:INFO: ----Data statistics------'
      #Edges 14
      #Classes 2
      #Train samples 3
      #Val samples 1
      #Test samples 1
2019-07-14 21:24:14,770:INFO: DGI(
  (encoder): Encoder(
    (conv): MiniBatchEdgeProp(
      (input_layer_e): OneLayerNN(
        (fc): Linear(in_features=8, out_features=128, bias=True)
        (fc2): Linear(in_features=128, out_features=128, bias=True)
      )
      (node_layers): ModuleList(
        (0): NodeUpdate(
          (layer): OneLayerNN(
            (fc): Linear(in_features=256, out_features=128, bias=True)
            (fc2): Linear(in_features=128, out_features=128, bias=True)
          )
        )
        (1): NodeUpdate(
          (layer): OneLayerNN(
            (fc): Linear(in_features=256, out_features=128, bias=True)
            (fc2): Linear(in_features=128, out_features=128, bias=True)
          )
        )
      )
      (phi): ModuleList(
        (0): OneLayerNN(
          (fc): Linear(in_features=451, out_features=128, bias=True)
          (fc2): Linear(in_features=128, out_features=128, bias=True)
        )
        (1): OneLayerNN(
          (fc): Linear(in_features=256, out_features=128, bias=True)
          (fc2): Linear(in_features=128, out_features=128, bias=True)
        )
      )
      (fc): Linear(in_features=128, out_features=128, bias=True)
    )
  )
  (discriminator): Discriminator()
  (loss): BCEWithLogitsLoss()
)
2019-07-14 21:24:14,842:INFO: Epoch 00000 | Time(s) nan | TrainLoss 1.3950 | ETputs(KTEPS) nan

2019-07-14 21:24:57,197:INFO: Namespace(model_dir='experiments/MiniBatchDGI', restore_file=None)
2019-07-14 21:24:57,275:INFO: ----Data statistics------'
      #Edges 14
      #Classes 2
      #Train samples 3
      #Val samples 1
      #Test samples 1
2019-07-14 21:24:57,282:INFO: DGI(
  (encoder): Encoder(
    (conv): MiniBatchEdgeProp(
      (input_layer_e): OneLayerNN(
        (fc): Linear(in_features=8, out_features=128, bias=True)
        (fc2): Linear(in_features=128, out_features=128, bias=True)
      )
      (node_layers): ModuleList(
        (0): NodeUpdate(
          (layer): OneLayerNN(
            (fc): Linear(in_features=256, out_features=128, bias=True)
            (fc2): Linear(in_features=128, out_features=128, bias=True)
          )
        )
        (1): NodeUpdate(
          (layer): OneLayerNN(
            (fc): Linear(in_features=256, out_features=128, bias=True)
            (fc2): Linear(in_features=128, out_features=128, bias=True)
          )
        )
      )
      (phi): ModuleList(
        (0): OneLayerNN(
          (fc): Linear(in_features=451, out_features=128, bias=True)
          (fc2): Linear(in_features=128, out_features=128, bias=True)
        )
        (1): OneLayerNN(
          (fc): Linear(in_features=256, out_features=128, bias=True)
          (fc2): Linear(in_features=128, out_features=128, bias=True)
        )
      )
      (fc): Linear(in_features=128, out_features=128, bias=True)
    )
  )
  (discriminator): Discriminator()
  (loss): BCEWithLogitsLoss()
)
2019-07-14 21:24:57,312:INFO: Epoch 00000 | Time(s) nan | TrainLoss 1.4086 | ETputs(KTEPS) nan

2019-07-14 21:26:33,990:INFO: Namespace(model_dir='experiments/MiniBatchDGI', restore_file=None)
2019-07-14 21:26:34,076:INFO: ----Data statistics------'
      #Edges 14
      #Classes 2
      #Train samples 3
      #Val samples 1
      #Test samples 1
2019-07-14 21:26:34,086:INFO: DGI(
  (encoder): Encoder(
    (conv): MiniBatchEdgeProp(
      (input_layer_e): OneLayerNN(
        (fc): Linear(in_features=8, out_features=128, bias=True)
        (fc2): Linear(in_features=128, out_features=128, bias=True)
      )
      (node_layers): ModuleList(
        (0): NodeUpdate(
          (layer): OneLayerNN(
            (fc): Linear(in_features=256, out_features=128, bias=True)
            (fc2): Linear(in_features=128, out_features=128, bias=True)
          )
        )
        (1): NodeUpdate(
          (layer): OneLayerNN(
            (fc): Linear(in_features=256, out_features=128, bias=True)
            (fc2): Linear(in_features=128, out_features=128, bias=True)
          )
        )
      )
      (phi): ModuleList(
        (0): OneLayerNN(
          (fc): Linear(in_features=451, out_features=128, bias=True)
          (fc2): Linear(in_features=128, out_features=128, bias=True)
        )
        (1): OneLayerNN(
          (fc): Linear(in_features=256, out_features=128, bias=True)
          (fc2): Linear(in_features=128, out_features=128, bias=True)
        )
      )
      (fc): Linear(in_features=128, out_features=128, bias=True)
    )
  )
  (discriminator): Discriminator()
  (loss): BCEWithLogitsLoss()
)
2019-07-14 21:26:34,120:INFO: Epoch 00000 | Time(s) nan | TrainLoss 1.3952 | ETputs(KTEPS) nan

2019-07-14 21:28:47,060:INFO: Namespace(model_dir='experiments/MiniBatchDGI', restore_file=None)
2019-07-14 21:28:47,136:INFO: ----Data statistics------'
      #Edges 14
      #Classes 2
      #Train samples 3
      #Val samples 1
      #Test samples 1
2019-07-14 21:28:47,143:INFO: DGI(
  (encoder): Encoder(
    (conv): MiniBatchEdgeProp(
      (input_layer_e): OneLayerNN(
        (fc): Linear(in_features=8, out_features=128, bias=True)
        (fc2): Linear(in_features=128, out_features=128, bias=True)
      )
      (node_layers): ModuleList(
        (0): NodeUpdate(
          (layer): OneLayerNN(
            (fc): Linear(in_features=256, out_features=128, bias=True)
            (fc2): Linear(in_features=128, out_features=128, bias=True)
          )
        )
        (1): NodeUpdate(
          (layer): OneLayerNN(
            (fc): Linear(in_features=256, out_features=128, bias=True)
            (fc2): Linear(in_features=128, out_features=128, bias=True)
          )
        )
      )
      (phi): ModuleList(
        (0): OneLayerNN(
          (fc): Linear(in_features=451, out_features=128, bias=True)
          (fc2): Linear(in_features=128, out_features=128, bias=True)
        )
        (1): OneLayerNN(
          (fc): Linear(in_features=256, out_features=128, bias=True)
          (fc2): Linear(in_features=128, out_features=128, bias=True)
        )
      )
      (fc): Linear(in_features=128, out_features=128, bias=True)
    )
  )
  (discriminator): Discriminator()
  (loss): BCEWithLogitsLoss()
)
2019-07-14 21:28:47,173:INFO: Epoch 00000 | Time(s) nan | TrainLoss 1.3901 | ETputs(KTEPS) nan

2019-07-14 21:28:47,184:INFO: ***** Epoch 00000 | Time(s) nan | Loss 1.3863 | ETputs(KTEPS) nan *****

2019-07-14 21:28:47,205:INFO: Epoch 00001 | Time(s) nan | TrainLoss 1.3863 | ETputs(KTEPS) nan
…
2019-07-14 21:28:49,774:INFO: Epoch 00148 | Time(s) 0.0156 | TrainLoss 1.3862 | ETputs(KTEPS) 0.90

2019-07-14 21:28:49,790:INFO: Epoch 00149 | Time(s) 0.0156 | TrainLoss 1.3862 | ETputs(KTEPS) 0.90

2019-07-14 21:28:49,791:INFO: Early stopping
2019-07-14 21:31:28,632:INFO: Namespace(model_dir='experiments/MiniBatchDGI', restore_file=None)
2019-07-14 21:31:28,706:INFO: ----Data statistics------'
      #Edges 14
      #Classes 2
      #Train samples 3
      #Val samples 1
      #Test samples 1
2019-07-14 21:31:28,713:INFO: DGI(
  (encoder): Encoder(
    (conv): MiniBatchEdgeProp(
      (input_layer_e): OneLayerNN(
        (fc): Linear(in_features=8, out_features=128, bias=True)
        (fc2): Linear(in_features=128, out_features=128, bias=True)
      )
      (node_layers): ModuleList(
        (0): NodeUpdate(
          (layer): OneLayerNN(
            (fc): Linear(in_features=256, out_features=128, bias=True)
            (fc2): Linear(in_features=128, out_features=128, bias=True)
          )
        )
        (1): NodeUpdate(
          (layer): OneLayerNN(
            (fc): Linear(in_features=256, out_features=128, bias=True)
            (fc2): Linear(in_features=128, out_features=128, bias=True)
          )
        )
      )
      (phi): ModuleList(
        (0): OneLayerNN(
          (fc): Linear(in_features=451, out_features=128, bias=True)
          (fc2): Linear(in_features=128, out_features=128, bias=True)
        )
        (1): OneLayerNN(
          (fc): Linear(in_features=256, out_features=128, bias=True)
          (fc2): Linear(in_features=128, out_features=128, bias=True)
        )
      )
      (fc): Linear(in_features=128, out_features=128, bias=True)
    )
  )
  (discriminator): Discriminator()
  (loss): BCEWithLogitsLoss()
)
2019-07-14 21:31:28,742:INFO: Epoch 00000 | Time(s) nan | TrainLoss 1.3867 | ETputs(KTEPS) nan

2019-07-14 21:31:28,753:INFO: ***** Epoch 00000 | Time(s) nan | Loss 1.3869 | ETputs(KTEPS) nan *****

2019-07-14 21:31:28,773:INFO: Epoch 00001 | Time(s) nan | TrainLoss 1.3869 | ETputs(KTEPS) nan
…
2019-07-14 21:49:56,800:INFO: Epoch 00198 | Time(s) 0.0155 | TrainLoss 1.3863 | ETputs(KTEPS) 0.90

2019-07-14 21:49:56,814:INFO: Epoch 00199 | Time(s) 0.0155 | TrainLoss 1.3863 | ETputs(KTEPS) 0.90

2019-07-14 21:49:56,814:INFO: Early stopping
2019-07-14 21:50:58,447:INFO: Namespace(model_dir='experiments/MiniBatchDGI', restore_file=None)
2019-07-14 21:50:58,526:INFO: ----Data statistics------'
      #Edges 14
      #Classes 2
      #Train samples 3
      #Val samples 1
      #Test samples 1
2019-07-14 21:50:58,529:INFO: DGI(
  (encoder): Encoder(
    (conv): MiniBatchEdgeProp(
      (input_layer_e): OneLayerNN(
        (fc): Linear(in_features=8, out_features=3, bias=True)
        (fc2): Linear(in_features=3, out_features=3, bias=True)
      )
      (node_layers): ModuleList(
        (0): NodeUpdate(
          (layer): OneLayerNN(
            (fc): Linear(in_features=6, out_features=3, bias=True)
            (fc2): Linear(in_features=3, out_features=3, bias=True)
          )
        )
        (1): NodeUpdate(
          (layer): OneLayerNN(
            (fc): Linear(in_features=6, out_features=3, bias=True)
            (fc2): Linear(in_features=3, out_features=3, bias=True)
          )
        )
      )
      (phi): ModuleList(
        (0): OneLayerNN(
          (fc): Linear(in_features=326, out_features=3, bias=True)
          (fc2): Linear(in_features=3, out_features=3, bias=True)
        )
        (1): OneLayerNN(
          (fc): Linear(in_features=6, out_features=3, bias=True)
          (fc2): Linear(in_features=3, out_features=3, bias=True)
        )
      )
      (fc): Linear(in_features=3, out_features=3, bias=True)
    )
  )
  (discriminator): Discriminator()
  (loss): BCEWithLogitsLoss()
)
2019-07-14 21:50:58,548:INFO: Epoch 00000 | Time(s) nan | TrainLoss 1.3917 | ETputs(KTEPS) nan

2019-07-14 21:50:58,554:INFO: ************** Epoch 00000 | Time(s) nan | Loss 1.3917 | ETputs(KTEPS) nan ***************

2019-07-14 21:50:58,567:INFO: Epoch 00001 | Time(s) nan | TrainLoss 1.3917 | ETputs(KTEPS) nan
…
2019-07-17 22:55:15,839:INFO: Reading ./dmt/data/test_data/adj.txt into dgl graph
2019-07-17 22:55:15,839:INFO: Number of edges found in ./dmt/data/test_data/adj.txt: 7
2019-07-17 22:55:15,840:INFO: *** Number of edges after filtering : 6
2019-07-17 22:55:15,841:INFO: {'edge_features': Scheme(shape=(4,), dtype=torch.float32)}
2019-07-17 22:55:15,842:INFO: Adding self-loop
2019-07-17 22:55:15,846:INFO: ----Data statistics------'
      #Edges 12
      #Classes 2
      #Train samples 3
      #Val samples 1
      #Test samples 1
2019-07-17 22:55:15,849:INFO: DGI(
  (encoder): Encoder(
    (conv): MiniBatchEdgeProp(
      (input_layer_e): OneLayerNN(
        (fc): Linear(in_features=4, out_features=3, bias=True)
        (fc2): Linear(in_features=3, out_features=3, bias=True)
      )
      (node_layers): ModuleList(
        (0): NodeUpdate(
          (layer): OneLayerNN(
            (fc): Linear(in_features=6, out_features=3, bias=True)
            (fc2): Linear(in_features=3, out_features=3, bias=True)
          )
        )
        (1): NodeUpdate(
          (layer): OneLayerNN(
            (fc): Linear(in_features=6, out_features=3, bias=True)
            (fc2): Linear(in_features=3, out_features=3, bias=True)
          )
        )
      )
      (phi): ModuleList(
        (0): OneLayerNN(
          (fc): Linear(in_features=326, out_features=3, bias=True)
          (fc2): Linear(in_features=3, out_features=3, bias=True)
        )
        (1): OneLayerNN(
          (fc): Linear(in_features=6, out_features=3, bias=True)
          (fc2): Linear(in_features=3, out_features=3, bias=True)
        )
      )
      (fc): Linear(in_features=3, out_features=3, bias=True)
    )
  )
  (discriminator): Discriminator()
  (loss): BCEWithLogitsLoss()
)
2019-07-17 22:55:26,059:INFO: Namespace(data_dir='./dmt/data/test_data/', model_dir='experiments/MiniBatchDGI', preprocess=True, restore_file=None)
2019-07-17 22:55:26,061:INFO: loading data...
2019-07-17 22:55:26,061:INFO: Loading Node Features...
2019-07-17 22:55:26,078:INFO: Loading Labels...
…
2019-07-18 10:51:14,093:INFO: Reading ./dmt/data/test_data/adj.txt into dgl graph
2019-07-18 10:51:14,094:INFO: Number of edges found in ./dmt/data/test_data/adj.txt: 7
2019-07-18 10:51:14,094:INFO: *** Number of edges after filtering : 6
2019-07-18 10:51:14,095:INFO: {'edge_features': Scheme(shape=(4,), dtype=torch.float32)}
2019-07-18 10:51:14,096:INFO: Adding self-loop
2019-07-18 10:51:14,101:INFO: ----Data statistics------'
      #Edges 12
      #Classes 2
      #Train samples 3
      #Val samples 1
      #Test samples 1
2019-07-18 10:51:14,112:INFO: DGI(
  (encoder): Encoder(
    (conv): MiniBatchEdgeProp(
      (input_layer_e): OneLayerNN(
        (fc): Linear(in_features=4, out_features=3, bias=True)
        (fc2): Linear(in_features=3, out_features=3, bias=True)
      )
      (node_layers): ModuleList(
        (0): NodeUpdate(
          (layer): OneLayerNN(
            (fc): Linear(in_features=6, out_features=3, bias=True)
            (fc2): Linear(in_features=3, out_features=3, bias=True)
          )
        )
        (1): NodeUpdate(
          (layer): OneLayerNN(
            (fc): Linear(in_features=6, out_features=3, bias=True)
            (fc2): Linear(in_features=3, out_features=3, bias=True)
          )
        )
      )
      (phi): ModuleList(
        (0): OneLayerNN(
          (fc): Linear(in_features=9, out_features=3, bias=True)
          (fc2): Linear(in_features=3, out_features=3, bias=True)
        )
        (1): OneLayerNN(
          (fc): Linear(in_features=6, out_features=3, bias=True)
          (fc2): Linear(in_features=3, out_features=3, bias=True)
        )
      )
      (fc): Linear(in_features=3, out_features=3, bias=True)
    )
  )
  (discriminator): Discriminator()
  (loss): BCEWithLogitsLoss()
)
2019-07-18 10:51:14,155:INFO: Epoch 00000 | Time(s) nan | TrainLoss 1.3868 | ETputs(KTEPS) nan

2019-07-18 10:51:14,161:INFO: ************** Epoch 00000 | Time(s) nan | Loss 1.3868 | ETputs(KTEPS) nan ***************

2019-07-18 10:51:14,173:INFO: Epoch 00001 | Time(s) nan | TrainLoss 1.3868 | ETputs(KTEPS) nan
…
